linear_model.pth (torch, 32250 bytes, 1 tensors)

linear.weight f4 [10, 784]
00000000: 10f5 4c3c 2877 ca3b ea12 f73c 7c35 023c
00000010: 7f38 0b3d 788b 1d3c 0f6b 0e3d 0038 dd37
00000020: 6a44 fbbc ba2b 993c dc4a 6ebc 93b4 f6bc
00000030: 27cf 383c b59a 1f39 eeb0 b4bc 634f e1bb
00000040: 4384 85bc daea 883c a290 8f3c 4afd c93c
00000050: 78ec a7bc 5e4b e53c 40ad b3ba b586 063d
00000060: e812 cb3c bc9d c7bc d528 123d a577 9cbc
00000070: 285b 9d3c b891 a4bb fa20 9cbc 00a0 d236
00000080: d473 a03b 324b 9b3c 7a26 bdbb 8c61 44bc
00000090: ce35 353c dfc2 be3c 812b 513b 8393 473c
000000a0: c349 8cbc a128 d0bb 4f01 0ebd ed34 ae3b
000000b0: 1899 9f3b 12e4 40ba 9d62 f13c 5ba7 12bd
000000c0: 0233 4bbc 0670 c4bc 22cb 8f3c 16ce 813b
000000d0: febf 9abc bbcd 0d3d 14a5 98bb 3848 d03b
000000e0: 38a6 eb3b a5ff 09bd 4433 96bc 8fa1 bfbc
000000f0: 948f e6bc ae4a d3bc 0b25 0ebd 8ac1 89bc
00000100: a495 063c 1388 4d3c 8a67 babc ac41 503c
00000110: 5579 e3bb e942 0ebc 4a38 b83c b47a 383c
00000120: 9a3c 1cbd 8b26 c03b ca6a 1dbd 0f4f 2fbc
00000130: 389f aabc b003 37bc e783 ffbb 8239 e73a
00000140: de46 163c 08ae 973b f060 5cbb e03d d63a
00000150: e0ac ef3a 1cef 1dbc ffc1 d2bb b49b aebb
00000160: d2d8 e8bc 1fad c63c b85d cb3c af29 c3bc
00000170: 26a3 d83c 3f7c 44bb a719 ecbc 7462 ceba
00000180: 70fa 75bc bc05 3ebd 061b 04bd a780 bebc
00000190: 9250 18bd ac4c 47bc 70fd 01bd 3b3d 51bc
000001a0: c042 2dbd fc07 d4bc 8408 3a3c 565d aebb
000001b0: 0bd0 3abc 5214 05bd cba7 063c d4f4 ffbb
000001c0: ae84 f43c 3c29 f7bc 0b69 843c b600 6d3b
000001d0: 0843 fc3c b7fb 503c 5814 a43c 62d2 de3c
000001e0: 6fcf 84bc 0a92 33bc 54d9 8b3a 0157 84bc
000001f0: 1f4c 23bd 6303 f3bc 5dcd c7bc 0814 9b3c
00000200: 88be b8bc c465 063d c309 e93b f676 08bd
00000210: b7ac 20bd 94cc b1bb ff77 e7bb f728 9abc
00000220: 18bd 49bb ef1b 993b 96e5 08bd aa43 bc3c
00000230: 4472 293c 9c96 0bbd 4067 a8bc 6aa5 cfbc
00000240: 4698 0a3d becb 91bc 1588 81bc acd9 c2bc
00000250: 5ebe 57bd 5db4 f7bc 04b8 50bd b516 debc
00000260: 1a54 1db9 a10d 523d 73e2 573d 84db 753d
00000270: 3f4b b93d 8c94 513d 39d9 8a3d c6db 7dbc
00000280: 5a7b aebc 128e d03c cbde 70bb 3e80 97b9
00000290: acbf 26bb 02ce f9ba 2991 f4bc 2a23 aebb
000002a0: da40 df3c 6a75 973c fd41 513b 49cf e63c
000002b0: 185f 4dbc 9499 ac3c 0366 a5bb a11d 91bc
000002c0: 734e 263b 91ae 08bd e49e 0fbd a726 373c
000002d0: 67f4 e4ba 88be 513d 666c 323d d0d8 823d
000002e0: b3e3 8c3d 023a da3d 5689 ad3d c033 953d
000002f0: bbcc 913c 6514 c2bc 3272 d3bc 4b87 893b
00000300: 8c08 683a 8efb 803c 5fa5 26bc 21e2 f1bc
00000310: ff3d e63c f269 b3bc a74e b3bc bfe9 243c
00000320: 55e2 d3bc 7b94 9b3c e0a2 1d3c 6ce4 86bc
00000330: e116 2bbd e937 26bd cf8d 813c 5d94 32bc
00000340: 249e f23c 1435 e1bb a193 463d fd09 993d
00000350: f70b 7c3d 4169 af3d aeee be3d ac6f 983d
00000360: 4846 6b3d b36e 273d e3b7 943c c70d 24bc
00000370: 9052 fdbc 420d 9dbc 7672 09bd d35b f7bc
00000380: d125 b83c 2c08 623c fe7e d23c ae3e c2bc
00000390: 5ee4 15bd 938c 923b 0568 6abd e519 88bb
000003a0: 9d58 6bbd c03e c4bc 1670 323c 4d60 c1bc
000003b0: ad11 2b3d 34a1 833d 238c 2b3d 3d46 6b3c
000003c0: fa5d 883d caa4 863d 8521 9c3d 8cee 973d
000003d0: 4594 173d d617 553d de04 193d 2253 eabc
000003e0: 82ca b1ba f2b3 36bd e1a6 043d ce81 f53c
000003f0: ada2 903c a7b8 633c a6b6 2dbb 7201 94bc
0.012509599 0.0061787553 0.030160386 0.007947322 0.033989426 0.0096157715 0.034770068 2.637133e-05
-0.03067227 0.018697608 -0.014544215 -0.030115401 0.011279858 0.00015221054 -0.022057023 -0.0068759187
-0.016298419 0.016713548 0.017525021 0.02465691 -0.0204985 0.02799004 -0.0013708249 0.03284331
0.024789289 -0.024367206 0.03568347 -0.01910002 0.019208506 -0.005022254 -0.019058693 6.277114e-06
0.0048966203 0.018956754 -0.005772409 -0.011986148 0.011060191 0.023286281 0.00319168 0.012181166
-0.017125016 -0.0063524996 -0.034669217 0.005316368 0.004870545 -0.0007358204 0.029465968 -0.035804134
-0.012402298 -0.023979198 0.017552916 0.003961335 -0.018890377 0.034620028 -0.0046583507 0.0063562654
0.0071914457 -0.033691067 -0.018334992 -0.023392467 -0.028144635 -0.025792446 -0.034703296 -0.01681592
0.008214388 0.01254465 -0.02275445 0.01271097 -0.006941954 -0.008682945 0.022487778 0.011259723
-0.03814373 0.0058639697 -0.03843192 -0.010700001 -0.020827875 -0.011170313 -0.0077977064 0.001764104
0.0091721695 0.0046289004 -0.0033627115 0.0016345344 0.0018285774 -0.009639528 -0.0064318175 -0.00532862
-0.0284237 0.024252472 0.024824962 -0.023823587 0.026444983 -0.0029981283 -0.028820826 -0.0015745894
-0.015013322 -0.046392187 -0.032252334 -0.023254706 -0.037186213 -0.012164276 -0.031735837 -0.012770946
-0.042299986 -0.025882713 0.011354569 -0.005321185 -0.01140214 -0.032490082 0.008218716 -0.007811168
0.029848423 -0.03017103 0.01616337 0.0036163754 0.030793682 0.012755326 0.020029232 0.027199928
-0.016212193 -0.010960111 0.0010669627 -0.016154768 -0.039867517 -0.0296647 -0.024389917 0.01893045
-0.02255179 0.032811895 0.0071117594 -0.033316575 -0.039227214 -0.005425999 -0.007063865 -0.018818362
-0.0030782875 0.0046725194 -0.033422075 0.022981483 0.010342184 -0.03407918 -0.020557046 -0.02534743
0.033836626 -0.017797347 -0.01581196 -0.023785435 -0.052671783 -0.030237371 -0.05095674 -0.027110437
-0.00015004017 0.05128253 0.052706193 0.0600238 0.09047555 0.051167056 0.06779713 -0.015494293
-0.021299053 0.02545837 -0.0036753889 -0.00028896512 -0.0025443835 -0.0019058587 -0.029854374 -0.0053142505
0.027252603 0.018488605 0.0031930201 0.028175013 -0.012534879 0.021069326 -0.005047561 -0.017714323
0.002537635 -0.033369604 -0.03506364 0.011178649 -0.0017467857 0.051207095 0.043560408 0.0638901
0.06879368 0.10655595 0.084734604 0.07285261 0.017797818 -0.023691365 -0.025811289 0.0041970364
0.0008851371 0.01574495 -0.0101712635 -0.029526772 0.028105734 -0.021901105 -0.02188809 0.010065495
-0.02586476 0.0189917 0.009621352 -0.016466342 -0.041769866 -0.040580664 0.01581469 -0.01089963
0.029616423 -0.0068727825 0.048480634 0.07472608 0.061534848 0.085649975 0.09322868 0.07443175
0.057440072 0.040877055 0.01815409 -0.01001305 -0.030923158 -0.01917136 -0.033556424 -0.030195152
0.02247897 0.013795894 0.02569532 -0.023711529 -0.03659474 0.004472324 -0.057228107 -0.0041534775
-0.057457555 -0.023955703 0.010890981 -0.02360549 0.041764904 0.064272314 0.04188169 0.014360008
0.066585496 0.065744 0.07623581 0.07418546 0.037006635 0.052024685 0.037358157 -0.028604094
-0.001356438 -0.044605203 0.03238571 0.029969122 0.017655695 0.013899005 -0.0026506572 -0.018067095
